模型训练/train_code/trian/trian/epilepsy_model.onnx (onnx, 11215 bytes, 5 tensors)

sequential_2/dense_8/MatMul/ReadVariableOp:0 f4 [32, 1]
0	0xbcc2dc49	-0.02378668
1	0x3e283601	0.16426851
2	0x3ea72800	0.32647705
3	0xbe809e5d	-0.25120822
4	0xbe5fa9dd	-0.21842141
5	0xbd001798	-0.0312725
6	0xbe5f110e	-0.2178385
7	0xbdaa8dcc	-0.08327827
8	0xbecdc132	-0.4018646
9	0xbdc1af88	-0.09457308
10	0x3eafb45c	0.3431729
11	0x3e1bbd3f	0.1520891
12	0x3e78eeb0	0.24309802
13	0x3e1eb6c7	0.15499412
14	0x3d292510	0.04129511
15	0x3ea21c2c	0.31662118
16	0x3e02700b	0.12738054
17	0x3dfafd88	0.122553885
18	0x3e0fc0c8	0.14038384
19	0xbe882c5e	-0.2659635
20	0xbe8bc9ae	-0.27302307
21	0xbe5f1793	-0.21786337
22	0x3eb93368	0.36172032
23	0xbe67f0ed	-0.226505
24	0xbc26f9c1	-0.010191382
25	0xbed9223e	-0.42408937
26	0x3c38c8a4	0.011278305
27	0xbe1dc683	-0.15407757
28	0x3d9a980e	0.075485334
29	0x3d4ad77f	0.04952192
30	0x3ddd3730	0.10801542
31	0xbd1eca6a	-0.038767256

sequential_2/dense_7/MatMul/ReadVariableOp:0 f4 [64, 32]
0	0xbe3c5984	-0.18393523
1	0xbe446bd4	-0.19181758
2	0x3d6bc7b0	0.057563484
3	0xbe01378c	-0.12618846
4	0x3dbe3dc0	0.09289122
5	0xbce713e0	-0.02820772
6	0x3d991cf8	0.074762285
7	0xbe34b490	-0.17647004
8	0xbe6b8fa8	-0.2300402
9	0xbe7af7d4	-0.24508601
10	0xbe1fb064	-0.15594631
11	0xbe2d7d70	-0.16942382
12	0x3d3a1930	0.045434177
13	0xbe7ea704	-0.24868399
14	0x3e7667b4	0.24062997
15	0x3e6fafb4	0.23406869
16	0x3e2fdab8	0.17173278
17	0x3e6f6fc8	0.23382485
18	0x3da887d0	0.08229029
19	0x3e65678c	0.22402781
20	0xbe1dcc34	-0.15409929
21	0x3e6da954	0.23209125
22	0x3d230850	0.03980285
23	0xbe10a0d4	-0.14123851
24	0x3e44ac5c	0.19206375
25	0xbd438330	-0.047732532
26	0x3e40dd64	0.18834454
27	0xbe4322b8	-0.19056213
28	0xbe715058	-0.23565805
29	0x3cb6c960	0.02231282
30	0xbe0d96a0	-0.1382699
31	0x3af09c00	0.0018357038
32	0x3dabe898	0.08393973
33	0xbe456750	-0.19277692
34	0xbe688174	-0.22705632
35	0xbd6522b0	-0.055941284
36	0x3e2cf7fc	0.16891474
37	0x3e0cbfc4	0.13745028
38	0x3dcbd380	0.0995245
39	0xbbd65700	-0.006541133
40	0x3e5d0ea4	0.21587616
41	0x3e14a334	0.14515382
42	0x3d7b6110	0.061371863
43	0xbe3df678	-0.18551052
44	0xbe551fcc	-0.20812911
45	0xbcfeef60	-0.031120002
46	0xbc109700	-0.008825064
47	0x3e364f30	0.17803645
48	0x3e278c20	0.16362047
49	0x3d0f4ba0	0.03498423
50	0x3dfd9e78	0.12383741
51	0x3e0a5970	0.1351068
52	0x3cbf7a80	0.023373842
53	0x3d16aee0	0.036787868
54	0xbe761d70	-0.24034667
55	0x3cf23d40	0.029570222
56	0x3e0d6c44	0.13810831
57	0x3e7fa62c	0.24965733
58	0x3e3fbfbc	0.18725485
59	0x3e0e5274	0.13898641
60	0xbe14d5f0	-0.14534736
61	0x3e1110a4	0.14166504
62	0xbd9ddc88	-0.077080786
63	0x3caa01e0	0.020752847
64	0x3e08c5e8	0.13356745
65	0xbd485aa4	-0.048914567
66	0xbdd343cd	-0.10315666
67	0x3da40892	0.08009447
68	0x3e37aa00	0.17935944
69	0xbe351ec3	-0.17687516
70	0x3e5ee440	0.21766758
71	0xbe2264fc	-0.15858835
72	0xbe56fe58	-0.20995462
73	0x3ad00991	0.0015871992
74	0xbe4e060c	-0.20119494
75	0x3d0c5949	0.034264836
76	0xbe83e80d	-0.25762978
77	0xbe93a49a	-0.2883652
78	0xbe7a5c90	-0.24449372
79	0x3d1d451b	0.038395982
80	0x3e538792	0.20657185
81	0x3d7f76b8	0.06236908
82	0x3d21504d	0.03938322
83	0xbe461d25	-0.19347055
84	0xbcaa9d15	-0.020826856
85	0x3e10eb69	0.14152302
86	0xbb850400	-0.0040593147
87	0x3c0b2b1b	0.008494164
88	0xbc42c3ab	-0.011887471
89	0xbe34dd6b	-0.17662589
90	0xbdeab1b9	-0.11459679
91	0xbd957e3c	-0.07299468
92	0xbe125b28	-0.14292586
93	0xbe5ddb3c	-0.21665663
94	0xbe079839	-0.13241662
95	0x3e0c616d	0.1370904
96	0x3a39b000	0.0007083416
97	0xbdf46f78	-0.119353235
98	0x3cd6e2c0	0.02623117
99	0xbd47e0c0	-0.048798323
100	0x3e78de74	0.24303609
101	0xbd18f750	-0.03734523
102	0x3daef4f8	0.08542818
103	0x3e223a84	0.15842634
104	0x3ca30d80	0.019903898
105	0x3c587b80	0.013213038
106	0x3d25b530	0.040455997
107	0xbd24eae0	-0.040263057
108	0x3e6fcd88	0.23418248
109	0xbc201c40	-0.00977236
110	0x3da17d88	0.07885271
111	0x3df0ffe8	0.1176756
112	0x3e04d440	0.12971592
113	0xbe626258	-0.22107828
114	0xbd619aa0	-0.055079103
115	0xbde50d90	-0.111842275
116	0x3e031a90	0.12803102
117	0x3d0d6e10	0.034528792
118	0xbd9d6d60	-0.07686877
119	0x3e6af3c8	0.22944558
120	0x3e6cea3c	0.23136228
121	0xbe7fb254	-0.2497037
122	0x3d8ae368	0.067816556
123	0xbe675b6c	-0.22593468
124	0x3e5b4878	0.21414363
125	0x3e49d98c	0.19711894
126	0x3c17a1c0	0.009254873
127	0x3cb2cae0	0.021825254
128	0xbd4f7d61	-0.05065668
129	0xbe4c2675	-0.19936545
130	0xbe2acb21	-0.1667905
131	0xbcf5d8c6	-0.030010592
132	0xbdbcdf79	-0.092223115
133	0x3e3bf10f	0.18353675
134	0xbd65ea6f	-0.056131776
135	0x3e48bb34	0.19602662
136	0xbe591e94	-0.21203071
137	0xbe3cf2e7	-0.18452035
138	0x3d944751	0.07240165
139	0x3d68e524	0.05685915
140	0xbdd1ab18	-0.10237712
141	0xbdb7d805	-0.08976749
142	0xbd847360	-0.064673185
143	0xbe56cc8d	-0.20976467
144	0xbe57d88a	-0.21078697
145	0x3e24d302	0.16096118
146	0xbe3cafb6	-0.18426403
147	0xbe0cc22e	-0.13745949
148	0x3d422d28	0.047406346
149	0xbc6cd62e	-0.014455361
150	0x3d0a4190	0.03375393
151	0x3e7a62fb	0.2445182
152	0x3e50edad	0.20403166
153	0xbc900a45	-0.017583022
154	0xbb0ab793	-0.0021166548
155	0xbe5a8d75	-0.21343024
156	0xbe2e4a46	-0.1702052
157	0xbd9e2873	-0.07722559
158	0x3e070f31	0.13189389
159	0xbe0540e6	-0.13013038
160	0x3e28d8fa	0.1648902
161	0x3e67d7e9	0.22640957
162	0xbc8392b7	-0.01606117
163	0x3da72130	0.08160627
164	0x3d17d546	0.037068628
165	0x3cc8a5e0	0.024493158
166	0x3e421701	0.18954088
167	0xbd579fb0	-0.052642524
168	0xbde39fc8	-0.1111446
169	0xbdb8d0fa	-0.09024234
170	0x3d6f9668	0.058493048
171	0xbcb9488e	-0.022617605
172	0x3e6f0491	0.23341586
173	0x3e10cf24	0.14141518
174	0x3d5d77b0	0.05406922
175	0x3cd55dce	0.026045706
176	0x3d5edfb2	0.05441255
177	0xbe215b54	-0.15757495
178	0xbde110ba	-0.109895185
179	0x3e542685	0.20717819
180	0x3e05ab71	0.13053681
181	0xbbfebb03	-0.0077737584
182	0x3e29fdf4	0.16600782
183	0x3d18a6e7	0.037268545
184	0x3e4e3433	0.201371
185	0x3e539f04	0.20666128
186	0x3da43001	0.080169685
187	0x3e6285a6	0.22121295
188	0xbe513a95	-0.20432504
189	0xbe251206	-0.16120157
190	0x3d3c0169	0.045899782
191	0x3e04c9cb	0.12967603
192	0x3ca14c40	0.01968968
193	0xbe50ec28	-0.20402586
194	0x3cbff600	0.023432732
195	0x3d942228	0.07233077
196	0xbe7528a0	-0.23941278
197	0x3e19e914	0.15030318
198	0x3ce5f120	0.028069079
199	0xbe49ddc4	-0.19713503
200	0x3cfde820	0.030994475
201	0xbe54a060	-0.20764303
202	0xbde7fdc8	-0.11327702
203	0x3c21f200	0.009884357
204	0x3e1327f4	0.1437071
205	0xbe7ac93c	-0.24490827
206	0xbd10fe00	-0.035398483
207	0x3d1198d0	0.035546124
208	0x3e0eb81c	0.1393742
209	0xbe0936e8	-0.13399851
210	0xbe760e28	-0.24028838
211	0xbd8ca8d0	-0.06868136
212	0x3da3d268	0.07999116
213	0xbd85f048	-0.06539971
214	0xbdac55e0	-0.08414817
215	0x3e38874c	0.18020362
216	0x3d460f00	0.04835415
217	0x3d8d36e0	0.06895232
218	0xbd7fd3e0	-0.06245792
219	0xbe7724d8	-0.24135149
220	0xbdabea20	-0.08394265
221	0x3dc4f918	0.09617823
222	0x3e0de33c	0.13856214
223	0xbdbf21e0	-0.09332633
224	0x3db118fb	0.08647343
225	0x3e2ef148	0.17084229
226	0xbd4847b0	-0.04889649
227	0x3b3bcefb	0.0028657306
228	0xbcf1fa84	-0.0295384
229	0x3dc8a4f3	0.097970866
230	0x3e20a6a4	0.15688568
231	0xbe404f10	-0.1878016
232	0xbda7c380	-0.081915855
233	0xbd92bcbf	-0.07164907
234	0x3e42b02a	0.19012514
235	0xbe538b89	-0.20658697
236	0x3e524610	0.20534539
237	0xbdfb3164	-0.1226528
238	0xbd7c33e0	-0.06157291
239	0x3ddd94d1	0.108194
240	0x3cdd843c	0.027040593
241	0x3e504ce8	0.20341837
242	0xbe6d0bab	-0.23148982
243	0xbd667b2c	-0.05626981
244	0x3df7ed95	0.12105862
245	0x3dadce48	0.08486611
246	0xbdf75af8	-0.12077898
247	0x3e03d815	0.12875398
248	0x3e470f27	0.19439374
249	0x3e118e3a	0.14214411
250	0x3de95bad	0.11394439
251	0xbe2c65c5	-0.16835697
252	0xbe02a319	-0.1275753
253	0xbe6572b1	-0.22407033
254	0xbe86ad2b	-0.26303992
255	0xbdcfd608	-0.10148245

sequential_2/dense_7/BiasAdd/ReadVariableOp:0 f4 [32]
0	0x3e882227	0.26588556
1	0xbf046f81	-0.5173264
2	0xbc889503	-0.016672617
3	0x3e1dec54	0.15422183
4	0x3f1a312d	0.60231286
5	0x3f279203	0.6545717
6	0x3f3dc478	0.7412791
7	0x00000000	0.0
8	0x00000000	0.0
9	0x3d1a9a0c	0.037744567
10	0xbf0b30d5	-0.54371387
11	0xbc21b88d	-0.0098706605
12	0xbc787d83	-0.015166643
13	0xbee38900	-0.4444046
14	0x00000000	0.0
15	0xbf2b3b02	-0.66886914
16	0xbf2c0e49	-0.672093
17	0xbf25d937	-0.6478457
18	0xbf2d0c5e	-0.67596996
19	0xbc0b042f	-0.008484884
20	0x3f279ee8	0.65476847
21	0x3f2cc926	0.6749443
22	0x00000000	0.0
23	0x3f2a541d	0.66534597
24	0x3f1fb99c	0.6239259
25	0x3e4fd6e3	0.20296817
26	0xbef8efde	-0.48620504
27	0x3f283dd1	0.65719324
28	0xbe88b103	-0.2669755
29	0xbc8cb20c	-0.017174743
30	0xbc8fe21b	-0.01756387
31	0x3f28aa10	0.65884495

sequential_2/dense_6/MatMul/ReadVariableOp:0 f4 [4, 64]
0	0xbe241c11	-0.16026331
1	0xbe13184e	-0.1436474
2	0xbc2dbd0c	-0.010604154
3	0xbc614e40	-0.013751566
4	0xbd65c7b5	-0.05609866
5	0x3daa84de	0.08326124
6	0xbe88102f	-0.26574847
7	0xbd7350b2	-0.05940313
8	0xbe1da528	-0.15395033
9	0x3e94f14d	0.29090348
10	0xba13a159	-0.00056316477
11	0x3d90619a	0.07049866
12	0x3e3ecccc	0.18632811
13	0xbe94b89c	-0.29047096
14	0x3d4aa8d4	0.049477413
15	0xbe356bf2	-0.17716959
16	0x3e5c3410	0.21504235
17	0xbde379ca	-0.11107214
18	0x3d5a56bb	0.05330537
19	0x3dc842ce	0.09778367
20	0x3e818535	0.2529694
21	0xbe82cfd8	-0.25549197
22	0x3e55da68	0.20884097
23	0xbd5be504	-0.053685203
24	0x3da083a0	0.078376055
25	0x3e5ab445	0.2135783
26	0x3e0119a4	0.12607437
27	0xbe31d250	-0.17365384
28	0x3d86d2b7	0.065831594
29	0xbe6918ce	-0.22763368
30	0xbcea66b4	-0.028613426
31	0x3e0cfd44	0.13768488
32	0xbda29a8e	-0.07939635
33	0xbd88b0e0	-0.06674361
34	0x3e3640c4	0.17798144
35	0x3cac2f58	0.021018669
36	0x3e4479ce	0.1918709
37	0x3e289cf3	0.16466121
38	0x3e87722a	0.26454288
39	0x3d9c0956	0.07618968
40	0xbe57714c	-0.21039313
41	0xbe63b900	-0.2223854
42	0x3e648aef	0.22318624
43	0x3e81f967	0.2538559
44	0xbe82bba2	-0.25533777
45	0x3e5f535b	0.21809141
46	0x3e84b67b	0.25920472
47	0xbdcde1bb	-0.1005282
48	0xbe2528b2	-0.16128805
49	0x3e82766d	0.25480977
50	0x3df13ef7	0.11779588
51	0xbd82a9a8	-0.063800156
52	0x3e8254cf	0.2545533
53	0x3e85868d	0.26079217
54	0xbe4c623c	-0.19959348
55	0x3d950c64	0.07277754
56	0x3d0fba3a	0.03508971
57	0xbe1c039c	-0.15235752
58	0x3e2086bb	0.15676396
59	0xbe5c2e3a	-0.21502009
60	0xbd8a3d3b	-0.0674996
61	0xbe84da34	-0.25947726
62	0xbd4cc627	-0.04999366
63	0xbe3936a2	-0.18087247
64	0xbd71e5b8	-0.059056967
65	0xbe0262ae	-0.12732956
66	0xbe58464e	-0.21120569
67	0xbc7e22a0	-0.015511185
68	0x3e335cf1	0.17515923
69	0x3d82d00d	0.06387339
70	0xbe8012bc	-0.25014293
71	0xbd6408e4	-0.05567254
72	0x3e696498	0.2279228
73	0x3dda0847	0.1064611
74	0x3e15c302	0.14625171
75	0x3e6eca08	0.23319256
76	0xbe96f4f6	-0.29483765
77	0xbe8a3bda	-0.26998788
78	0x3e8ac115	0.27100435
79	0x3dc74b76	0.0973119
80	0xbe7a6b55	-0.24455006
81	0xbe08d53a	-0.1336259
82	0x3e2928a1	0.16519405
83	0xbe8bd773	-0.27312812
84	0x3e233ea2	0.15941861
85	0xbe879f96	-0.26488942
86	0xbdc55a2a	-0.09636338
87	0xbd9f1972	-0.07768525
88	0x3d65906c	0.056045935
89	0x3e1661a2	0.14685681
90	0x3e1985a1	0.14992382
91	0xbe82bffd	-0.255371
92	0xbe011ec6	-0.12609395
93	0x3de4cf46	0.11172347
94	0xbe2df65c	-0.1698851
95	0xbe047747	-0.12936126
96	0xbd9e39af	-0.07725846
97	0x3e77b84a	0.24191394
98	0xbe8d8f94	-0.27648604
99	0xbdb9a466	-0.0906456
100	0x3e17a556	0.14809164
101	0xbe93e1aa	-0.28883106
102	0xbe49bc59	-0.19700755
103	0x3d82777a	0.063704446
104	0x3e2d04ba	0.16896334
105	0x3dbbf2a4	0.091771394
106	0x3e1efbc5	0.1552573
107	0xbe22d492	-0.15901402
108	0x3e859012	0.2608648
109	0xbdd808f2	-0.10548581
110	0xbe823cb6	-0.25436944
111	0x3e09747f	0.13423346
112	0x3e38b060	0.18036032
113	0xbd9c4bf1	-0.07631672
114	0x3d8f5b9b	0.06999894
115	0xbe27985f	-0.16366719
116	0x3e8b79ef	0.27241465
117	0x3dd6e4cd	0.10492859
118	0x3db574c1	0.0886016
119	0x3e05a88e	0.1305258
120	0x3ceae259	0.028672384
121	0xbd03bb60	-0.032161117
122	0x3e1c5e07	0.15270244
123	0x3da78620	0.08179879
124	0x3e5e4e56	0.2170957
125	0xbe2cca62	-0.16874078
126	0x3d55bece	0.05218392
127	0x3e999d62	0.30002886
128	0xbddb6d4c	-0.10714206
129	0xbdb1a844	-0.08674672
130	0x3e4232f5	0.18964751
131	0xbe885571	-0.26627687
132	0x3e788497	0.24269329
133	0x3dba0154	0.090822846
134	0xbdf4207c	-0.119202584
135	0x3e144bd9	0.14482059
136	0xbe09c740	-0.13454914
137	0xbe24ce79	-0.16094388
138	0x3e39a62e	0.18129799
139	0x3cf6730c	0.030084155
140	0xbe37ed29	-0.17961563
141	0x3ca24d30	0.019812196
142	0xbe273269	-0.16327824
143	0x3e410593	0.18849783
144	0x3e79ea35	0.24405749
145	0xbd476f60	-0.0486902
146	0xbe6abae7	-0.2292286
147	0xbe473c7e	-0.1945667
148	0x3e0325ea	0.12807432
149	0xbd7d9634	-0.061910823
150	0xbe222f0f	-0.15838264
151	0xbdabf61c	-0.08396551
152	0xbe43888b	-0.19095056
153	0xbe964af2	-0.29354054
154	0x3e0c254a	0.136861
155	0xbe8ae43a	-0.27127248
156	0x3e18b8ad	0.14914198
157	0x3e542350	0.20716596
158	0x3e7e1173	0.24811344
159	0x3e859e04	0.2609712
160	0x3e62e56f	0.22157834
161	0xbe4343fb	-0.19068901
162	0xbe8917e7	-0.2677605
163	0x3d833938	0.06407398
164	0x3d12cbae	0.035838775
165	0x3d49ee63	0.04929961
166	0x3e81301b	0.25232014
167	0xbd6cc0f9	-0.05780122
168	0xbd8837c0	-0.066512585
169	0xbe24b02e	-0.16082832
170	0xbe767d65	-0.24071272
171	0xbdf4c971	-0.119524844
172	0x3cac485b	0.021030596
173	0xbda4b2a1	-0.08041883
174	0x3d5d71ea	0.054063715
175	0xbe5dc449	-0.21656908
176	0x3e774e17	0.24150883
177	0xbe70fa92	-0.23533085
178	0xbd9d9b0c	-0.076955885
179	0x3e8eb92a	0.27875644
180	0xbe84e9d7	-0.25959656
181	0x3e201176	0.15631661
182	0xbd343ccd	-0.044003297
183	0xbd03101b	-0.03199778
184	0x3da7ec76	0.08199398
185	0xbe00c198	-0.1257385
186	0x3e1f25ee	0.15541813
187	0xbe2e1dc0	-0.17003536
188	0x3e3c246d	0.1837327
189	0x3e0160bb	0.12634556
190	0xbd51297e	-0.05106496
191	0x3e8f5170	0.2799182
192	0xbe2cabae	-0.16862366
193	0x3d7b4560	0.061345458
194	0x3e95bdd8	0.29246402
195	0xbdc011e4	-0.09378412
196	0xbdddd946	-0.10832457
197	0xbcdb4a79	-0.02676891
198	0x3d181370	0.037127912
199	0x3d825352	0.06363548
200	0x3c14d59f	0.009084134
201	0xbde4c42d	-0.1117023
202	0x3e644d7f	0.22295187
203	0xbe09bb68	-0.13450396
204	0xbd9b783b	-0.075912915
205	0xbdf098f2	-0.11747922
206	0x3e2edb47	0.17075835
207	0x3b9f8952	0.004868665
208	0x3dcc301e	0.09970115
209	0xbe35f12c	-0.17767781
210	0x3da866ed	0.082227565
211	0x3dea3d36	0.11437456
212	0xbe07ec9b	-0.13273852
213	0xbc9fa840	-0.019489408
214	0x3da85354	0.082190186
215	0x3b392c80	0.0028255284
216	0x3e0c535e	0.13703677
217	0xbe5d043d	-0.21583648
218	0x3e38181b	0.17977946
219	0xbd789de4	-0.06069745
220	0xbe9686d0	-0.2939973
221	0xbe76273a	-0.24038401
222	0x3e79933e	0.24372575
223	0x3d3cfedd	0.046141494
224	0x3e818812	0.25299126
225	0x3e118edd	0.14214654
226	0xbe97db18	-0.29659343
227	0x3e80bf7a	0.25146085
228	0xbe61296b	-0.21988456
229	0xbe1265cb	-0.14296643
230	0xbdeefa7b	-0.11668869
231	0x3cd4321d	0.025902802
232	0x3e3dc831	0.18533398
233	0xbe251de2	-0.1612468
234	0xbdae0ac5	-0.08498148
235	0xbd5fcd41	-0.054639105
236	0x3c5565c5	0.013024752
237	0x3e279091	0.16363741
238	0xbcb78ff3	-0.022407508
239	0xbe8043a7	-0.25051615
240	0xbe3e0ba6	-0.18559131
241	0x3e817040	0.25280952
242	0x3d4ff236	0.0507681
243	0xbdd7faba	-0.10545869
244	0xbe49c88a	-0.19705406
245	0xbcaaef49	-0.020866053
246	0x3e383dc6	0.17992315
247	0xbe82b5fb	-0.25529465
248	0xbc49285b	-0.012277688
249	0xbcb049a0	-0.021519482
250	0xbe4b714d	-0.1986744
251	0x3dfb85e2	0.122813955
252	0xbd45298a	-0.048135318
253	0x3d939737	0.07206576
254	0x3d8c3b78	0.0684728
255	0xbe7266b3	-0.23671989

sequential_2/dense_6/BiasAdd/ReadVariableOp:0 f4 [64]
0	0x00000000	0.0
1	0x00000000	0.0
2	0x3f2ae8e2	0.667616
3	0x00000000	0.0
4	0x3f1f4406	0.6221317
5	0x3f13ac46	0.57684743
6	0x00000000	0.0
7	0x3e0cc723	0.1374784
8	0xbed4a48a	-0.41531783
9	0x3efb8909	0.49127987
10	0xbd8acbd7	-0.067771606
11	0x3f0f5ab2	0.55997765
12	0xbcaa11c5	-0.020760426
13	0x00000000	0.0
14	0xbdcfc5da	-0.10145159
15	0x3f0d9ab2	0.5531417
16	0xbf13a324	-0.5767081
17	0x00000000	0.0
18	0xbf1beaba	-0.6090504
19	0x3e219522	0.15779546
20	0xbf403673	-0.7508308
21	0x00000000	0.0
22	0xbdeb6c50	-0.11495268
23	0x00000000	0.0
24	0xbf2b7e11	-0.6698924
25	0xbe97126c	-0.29506242
26	0x3ecebb89	0.40377453
27	0x00000000	0.0
28	0x3e862b29	0.26204804
29	0xbec2b655	-0.38029733
30	0xbf0408ae	-0.51575744
31	0xbf5dd397	-0.86650985
32	0x3eefa779	0.4680746
33	0x3e9bd91a	0.30439073
34	0x00000000	0.0
35	0xbef48810	-0.47760057
36	0x3f327187	0.6970448
37	0x3e8b81f3	0.2724758
38	0x3f52c67e	0.82334125
39	0xbe929ea2	-0.28636652
40	0x3efa4729	0.48882416
41	0x00000000	0.0
42	0xbf03f728	-0.51549006
43	0xbe7bfa1f	-0.24607132
44	0xbd9a927a	-0.075474694
45	0x3f13c7cb	0.57726735
46	0xbf2b579c	-0.66930556
47	0xbd05c440	-0.03265786
48	0xbec826fa	-0.39092237
49	0x3f209231	0.6272307
50	0xbf377cc8	-0.71674776
51	0xbf10bd18	-0.56538534
52	0xbe23b6d0	-0.15987706
53	0x3f445b6b	0.7670199
54	0xbf34d56b	-0.7063815
55	0x3edd04c7	0.43167707
56	0xbf1e33fd	-0.6179808
57	0x00000000	0.0
58	0xbea28565	-0.31742397
59	0x3ead5861	0.3385649
60	0x3f3d2f37	0.7390017
61	0x3cdf7de8	0.027281716
62	0x3dcdc9f1	0.10048283
63	0xbb591301	-0.00331229
