模型训练/train_code/trian/trian/heart_disease_model.onnx (onnx, 1085 bytes, 3 tensors)

sequential/dense_1/MatMul/ReadVariableOp:0 f4 [8, 1]
00000000: d02d 91be 9571 5cbf c5d7 303f c008 6f3e
00000010: b05f 293e 182c 07bd 10cb 3ebd 243a 67be
-0.28355265 -0.8611081 0.6907924 0.23343182 0.16540408 -0.033001035 -0.046580374 -0.22580773

sequential/dense/MatMul/ReadVariableOp:0 f4 [2, 8]
00000000: 4f26 053f 7a5d 82be 5fa4 a73e ef65 13bf
00000010: b4db dc3e bcaf f2bd 3f47 eebe a30b e53e
00000020: 36f2 043e 8f37 903e 8093 303b e6e2 b0be
00000030: 548c 00bf 6ca9 283f d338 0dbf e1dd fcbe
0.5201158 -0.25461942 0.32742593 -0.57577413 0.4313637 -0.11849925 -0.4653873 0.4473544
0.12983021 0.28167388 0.0026943386 -0.3454811 -0.50214124 0.6588352 -0.5516483 -0.4938803

sequential/dense/BiasAdd/ReadVariableOp:0 f4 [8]
00000000: a0ed 20be ced2 67bd 25eb 1f3e 0000 0000
00000010: 0000 0000 b506 37be 0000 0000 a6cf c6bc
-0.15715647 -0.056597523 0.15617044 0.0 0.0 -0.17873652 0.0 -0.024268936
