模型训练/train_code/trian/trian/sleep_quality_model.onnx (onnx, 11401 bytes, 6 tensors)

sequential/dense_2/MatMul/ReadVariableOp:0 f4 [32, 3]
-0.3961476 -0.25695843 -0.1002793 0.07692754 -0.07448703 0.30216917 0.03955481 0.17239124
-0.13839068 0.13476817 -0.243327 -0.25334373 -0.37561888 -0.025183292 0.18178192 -0.3034441
0.027624154 0.29313406 -0.3044158 0.119181484 0.20800972 0.17834704 0.07969815 -0.37198767
-0.100018546 -0.05806769 -0.07365082 0.3913467 -0.14807059 0.009975548 0.2384297 -0.25032064
-0.1398555 -0.25023922 -0.27357095 -0.24635585 -0.33121303 -0.11193658 -0.039113123 -0.29462746
-0.21238263 0.35531637 0.011394829 -0.11734271 -0.093472034 0.23159598 0.09589597 0.035981294
-0.031295408 0.36018354 -0.16962515 0.4202559 0.18516423 -0.108060256 0.057845995 0.22113957
-0.050129026 0.18716511 0.2932788 0.36299345 0.26760325 0.32436016 0.18738385 -0.22816199
-0.1104638 -0.22016531 0.08493188 -0.19942096 -0.08181883 -0.26942813 -0.16452546 -0.009195868
0.16458862 0.14272639 -0.5055521 -0.23457631 -0.10791569 -0.07731518 0.12172201 0.19312063
-0.3456962 0.32345456 0.13340786 0.14392464 -0.079456605 -0.055507794 -0.019874904 0.3846362
-0.16663481 -0.3390848 0.18766636 -0.29653934 -0.33374414 0.3609186 -0.02284204 -0.21630526
00000000: dcd3 cabe 0e90 83be 3c5f cdbd 308c 9d3d
00000010: a88c 98bd ebb5 9a3e 3904 223d 5487 303e
00000020: 49b6 0dbe ab00 0a3e b72a 79be 45b6 81be
00000030: 1e51 c0be 314d cebc 0a25 3a3e 065d 9bbe
00000040: 0d4c e23c ab15 963e 63dc 9bbe 6c15 f43d
00000050: 8000 553e 9ba0 363e c938 a33d 2b75 bebe
00000060: 86d6 ccbd 63d8 6dbd 3ed6 96bd 985e c83e
00000070: d19f 17be 7b70 233c ea26 743e 072a 80be
00000080: 4836 0fbe 5b1f 80be 7e11 8cbe b544 7cbe
00000090: c194 a9be 013f e5bd 1535 20bd 69d9 96be
000000a0: d57a 59be 07ec b53e 60b1 3a3c 6051 f0bd
000000b0: 446e bfbd 7f27 6d3e 1b65 c43d 1f61 133d
000000c0: 9d2f 00bd fa69 b83e 37b2 2dbe c82b d73e
000000d0: b19b 3d3e b24e ddbd ecef 6c3d 6972 623e
000000e0: 1854 4dbd 36a8 3f3e a428 963e 47da b93e
000000f0: 4b03 893e 8912 a63e 8de1 3f3e 4ca3 69be
00000100: d83a e2bd 0473 61be c4f0 ad3d 0235 4cbe
00000110: a190 a7bd 7cf2 89be 5d79 28be 44aa 16bc
00000120: eb89 283e de26 123e dd6b 01bf c634 70be
00000130: e702 ddbd 6c57 9ebd 6449 f93d 6ac1 453e
00000140: 18ff b0be d69b a53e 129c 083e fb60 133e
00000150: 25ba a2bd 245c 63bd b2d0 a2bc 09ef c43e
00000160: 51a2 2abe 869c adbe 9c2b 403e 01d4 97be
00000170: 83e0 aabe 53ca b83e 3b1f bbbc 207f 5dbe

sequential/dense_2/BiasAdd/ReadVariableOp:0 f4 [3]
-0.46129316 -0.10397307 0.22011079
00000000: 9e2e ecbe d5ef d4bd b964 613e

sequential/dense_1/MatMul/ReadVariableOp:0 f4 [64, 32]
-0.21562171 -0.16355419 0.20650122 0.09923801 -0.060017396 -0.0066300714 0.031663544 0.22573392
-0.17493682 -0.2232934 -0.038914032 -0.13768555 -0.17860658 -0.03237295 -0.20997846 -0.10367714
0.20782855 -0.1530003 0.1978599 0.0684109 -0.04584638 0.062171638 0.15743922 -0.09635444
-0.26344424 0.16571952 -0.24991012 -0.16500963 -0.18629129 0.039004028 -0.26725915 0.12953605
-0.08796406 -0.06007582 0.12080663 0.19714136 0.15812708 -0.086325265 0.22168398 -0.0345459
0.053149156 -0.036450207 0.22411644 0.15919816 -0.16577224 -0.089451194 0.23713833 -0.014441503
-0.20411797 -0.26217845 0.097958736 -0.17432876 0.061891634 -0.20903558 -0.06180227 0.2172693
-0.14445333 0.063992724 0.22454667 0.1349818 -0.2329208 -0.10031164 0.0046475423 -0.042742454
0.037090123 -0.026271462 0.24923024 -0.15537399 -0.10873776 -0.175027 0.059286933 -0.075295284
0.10495137 -0.19001602 -0.043914102 0.18580435 0.2107338 -0.022549879 0.12403041 -0.19938606
0.07108272 0.030745978 -0.23272711 -0.18022908 0.076889455 -0.15492499 -0.036405638 -0.22557288
0.0705343 -0.13132633 0.052871227 0.18664393 -0.21017791 -0.027080059 0.084253974 -0.09738976
0.01317507 -0.112378 0.07915959 -0.07391314 -0.014650509 0.13671637 -0.17412971 -0.21629894
-0.030485442 -0.19567497 0.062445763 -0.24593751 -0.077481866 -0.25130877 0.23149008 -0.07113537
0.17880352 -0.12594406 -0.034579173 -0.11620652 0.1321783 -0.096437395 0.08447492 0.02457273
0.03827666 0.17753403 -0.10733086 0.1196568 -0.20311342 -0.061305225 -0.1712289 -0.028706625
0.1876846 0.10521823 -0.04714127 -0.1295042 -0.10788047 -0.06306668 0.22162697 0.18593556
0.16736865 -0.19845182 -0.16298236 0.09368116 -0.17642352 -0.087917745 0.07113403 0.03946376
-0.0786396 -0.12321553 0.09087361 -0.1775698 -0.08668071 0.106271684 -0.2576146 -0.1301505
-0.12650785 0.066882126 -0.04555273 0.16405614 0.24063474 -0.107924044 -0.13056058 0.0043123
-0.04593247 -0.1545124 -0.21181113 -0.108834155 -0.060283903 -0.16439275 -0.20848665 -0.13865438
-0.089033745 0.049712658 -0.054182112 -0.09170334 0.14731951 0.09530008 0.10079664 0.09788977
-0.068407394 0.23442848 0.033194825 -0.024756676 0.1212054 0.13118541 0.07912219 0.031678014
0.028725421 -0.2583189 -0.24105853 0.14758505 0.0052064075 0.1600197 0.00984732 0.073224336
0.021992445 -0.18015957 -0.11452988 0.0052091544 0.22522421 -0.16234335 -0.17173645 0.17446548
-0.012771248 -0.24329937 -0.11526964 0.23036978 -0.020290617 0.14219473 -0.19693112 -0.14188124
-0.009077172 -0.19251204 0.007091568 -0.17059419 0.23318863 -0.22503614 -0.08687986 0.1471312
0.14032105 -0.008889155 -0.22612685 0.09977785 -0.086042196 -0.13199782 -0.2007568 -0.10560407
-0.01283586 -0.1916703 0.1665465 0.10355848 -0.019639026 -0.050223213 0.13347876 -0.1280615
-0.14612247 -0.07115793 0.197903 -0.14066754 0.07138055 0.022213042 0.22693783 -0.17436127
0.15220517 -0.00019069795 0.1407282 0.037404906 -0.22584146 0.14515668 -0.14613813 0.21777324
0.2105833 -0.207322 0.161699 -0.22404867 -0.044398572 -0.20310336 -0.08530158 -0.17024255
00000000: f0cb 5cbe c07a 27be 0e75 533e 4c3d cb3d
00000010: cdd4 75bd 1241 d9bb a2b1 013d cb26 673e
00000020: a322 33be 06a7 64be 5264 1fbd 71fd 0cbe
00000030: a5e4 36be 8099 04bd 9804 57be ae54 d4bd
00000040: 02d1 543e 1cac 1cbe c99b 4a3e 041b 8c3d
00000050: 6ac9 3bbd b0a7 7e3d bf37 213e 7a55 c5bd
00000060: 2ae2 86be 61b2 293e 70e8 7fbe 49f8 28be
00000070: 25c3 3ebe b0c2 1f3d 31d6 88be 19a5 043e
00000080: 8026 b4bd 1012 76bd 7769 f73d 6ddf 493e
00000090: 11ec 213e 4dcb b0bd 2001 633e 0080 0dbd
000000a0: eeb2 593d d04c 15bd c87e 653e d804 233e
000000b0: 33c0 29be 3032 b7bd 64d4 723e 0e9c 6cbc
000000c0: 4d04 51be 413c 86be 979e c83d 3d83 32be
000000d0: 1582 7d3d 6c0d 56be 6124 7dbd d87b 5e3e
000000e0: 93eb 13be 9e0e 833d 90ef 653e ab38 0a3e
000000f0: ca82 6ebe 3070 cdbd 694a 983b b612 2fbd
00000100: d0eb 173d 4037 d7bc 3636 7f3e 5c1a 1fbe
00000110: e7b1 debd 473a 33be dbd6 723d 6a34 9abd
00000120: bef0 d63d 8f93 42be 46df 33bd 7f43 3e3e
00000130: 9aca 573e 86ba b8bc a803 fe3d dc2b 4cbe
00000140: d193 913d fdde fb3c 0450 6ebe f98d 38be
00000150: 3878 9d3d a8a4 1ebe 141e 15bd 94fc 66be
00000160: 4974 903d 697a 06be 808f 583d 961f 3f3e
00000170: e138 57be 00d7 ddbc 598d ac3d 4874 c7bd
00000180: 40dc 573c 7026 e6bd 6c1e a23d c65f 97bd
00000190: b008 70bc 60ff 0b3e 0f4f 32be 787d 5dbe
000001a0: 9bbc f9bc 055f 48be 21c7 7f3d 0bd7 7bbe
000001b0: d0ae 9ebd 8bab 80be bc0b 6d3e 6caf 91bd
000001c0: 4518 373e 7bf7 00be e4a2 0dbd affd edbd
000001d0: c059 073e f880 c5bd 3001 ad3d c04c c93c
000001e0: fdc7 1c3d 7bcb 353e 48d0 dbbd a00e f53d
000001f0: f7fc 4fbe 301b 7bbd a156 2fbe 282a ebbc
00000200: 6430 403e a87c d73d 3417 41bd c09c 04be
00000210: 70f0 dcbd 1b29 81bd 2ef2 623e e465 3e3e
00000220: b062 2b3e f436 4bbe d9e4 26be e8db bf3d
00000230: 5ea8 34be 380e b4bd b8ae 913d c0a4 213d
00000240: cc0d a1bd 6c58 fcbd f11b ba3d dcd4 35be
00000250: a885 b1bd f8a4 d93d 10e6 83be 2c46 05be
00000260: 468b 01be 7ff9 883d 8095 3abd 55fe 273e
00000270: f468 763e 4807 ddbd acb1 05be 324e 8d3b
00000280: b023 3cbd 8038 1ebe 04e5 58be 71e4 debd
00000290: 41ec 76bd 9356 28be 867d 55be 6afb 0dbe
000002a0: 5357 b6bd 809f 4b3d 10ee 5dbd f6ce bbbd
000002b0: edda 163e b02c c33d 786e ce3d 6f7a c83d
000002c0: 2d19 8cbd 050e 703e 4cf7 073d 83ce cabc
000002d0: 893a f83d 7855 063e d10a a23d cec0 013d
000002e0: 9351 eb3c 6042 84be 0cd8 76be 8920 173e
000002f0: 839a aa3b 34dc 233e a756 213c a4f6 953d
00000300: 8029 b43c c07b 38be a48e eabd 8eb1 aa3b
00000310: 2da1 663e 563d 26be aedb 2fbe 14a7 323e
00000320: 7f3e 51bc 7823 79be 7d12 ecbd 0ee6 6b3e
00000330: 8238 a6bc 7f9b 113e 50a8 49be 5149 11be
00000340: 6bb8 14bc e021 45be 6260 e83b 3eb0 2ebe
00000350: 00c9 6e3e e06f 66be 11ee b1bd 90a9 163e
00000360: 52b0 0f3e d2a3 11bc cc8d 67be 5458 cc3d
00000370: e436 b0bd 702a 07be 3193 4dbe f246 d8bd
00000380: 804d 52bc 3845 44be 2a8b 2a3e 7816 d43d
00000390: 06e2 a0bc dbb6 4dbd a8ae 083e 8e22 03be
000003a0: 21a1 15be 40bb 91bd 16a7 4a3e 270b 10be
000003b0: f72f 923d 20f8 b53c 6462 683e c38b 32be
000003c0: acdb 1b3e 17f6 47b9 0e1b 103e e335 193d
000003d0: fc42 67be f4a3 143e 3ca5 15be f3ff 5e3e
000003e0: 26a3 573e 384c 54be 6c94 253e 046d 65be
000003f0: 47db 35bd 54fa 4fbe 98b2 aebd 1054 2ebe

sequential/dense_1/BiasAdd/ReadVariableOp:0 f4 [32]
0.0 0.0 -0.15957625 -0.14957148 -0.011520032 0.312787 -0.009764232 -0.02788999
-0.029683298 -0.023145443 -0.0067148916 0.155863 0.32577574 -0.004745303 0.0 -0.29512256
-0.039273877 -0.14128663 -0.14560825 0.036481846 -0.029140083 0.0 -0.044433873 -0.019342747
-0.042383093 0.3918825 0.0 -0.19200942 0.17317584 0.0 -0.027120497 -0.35979378
00000000: 0000 0000 0000 0000 f567 23be 4429 19be
00000010: 84be 3cbc 9e25 a03e 28fa 1fbc 8c79 e4bc
00000020: 632a f3bc 839b bdbc 9808 dcbb 8d9a 1f3e
00000030: 14cc a63e 7d7e 9bbb 0000 0000 4e1a 97be
00000040: a5dd 20bd 71ad 10be 541a 15be fd6d 153d
00000050: 2fb7 eebc 0000 0000 4b00 36bd ae74 9ebc
00000060: e599 2dbd d3a4 c83e 0000 0000 1e9e 44be
00000070: 0255 313e 0000 0000 ce2b debc e436 b8be

sequential/dense/MatMul/ReadVariableOp:0 f4 [4, 64]
-0.0036279697 0.26536596 0.03083228 -0.036898773 -0.024792038 0.054142546 0.020272925 -0.35207254
-0.18252069 -0.050103858 -0.11838882 0.29052392 -0.23174302 -0.2533598 -0.00065654644 -0.3022657
0.14152019 0.025035255 0.07049984 -0.15426923 0.0372279 0.117191635 -0.24861626 -0.037622217
0.14405848 -0.062261 0.18641733 -0.27142885 -0.26806295 0.12772061 -0.00073568756 -0.25235516
-0.3396947 0.24311626 0.10414897 -0.17594534 0.091205195 -0.26715145 -0.105134144 0.221691
0.1904268 0.007126252 -0.119548455 0.17504388 0.16172722 -0.24582046 0.095383644 0.047940433
-0.104062214 0.2551083 0.16414578 0.18956853 -0.37015763 -0.27518436 0.17374372 -0.21363088
0.17576824 0.2416598 -0.02092877 -0.07664998 -0.07268849 -0.17056595 -0.017985314 -0.19782321
0.05303002 -0.14940946 0.23247956 0.108252145 -0.0030325188 0.022525473 0.010520741 -0.15403874
-0.16282548 -0.0220896 0.15284535 0.16062388 0.2285879 0.23222652 -0.19757749 0.23443648
-0.034497105 -0.09218139 0.27588356 -0.06537126 -0.14501962 -0.25230333 0.23133819 -0.123354554
0.13999084 -0.26341364 0.09907378 -0.10234163 -0.21884003 -0.24528302 0.1540746 -0.038670123
0.058844093 0.03911184 -0.11329736 -0.14627689 -0.12971897 0.23485252 0.036407877 -0.09871617
-0.056819484 -0.038995825 0.15908934 -0.095192865 0.07226168 0.071950674 -0.00056362833 0.059029292
-0.29481328 -0.17324054 0.264029 0.16372225 0.118155584 -0.26754704 -0.2420705 -0.19731425
-0.12016969 -0.07865475 -0.15080725 0.043301474 -0.2191567 0.17549786 -0.037001938 0.07161787
0.2801081 -0.035835795 -0.33554584 -0.3148738 -0.26597357 0.03278844 -0.24438505 0.17140917
-0.15254292 -0.013257682 0.023356814 0.18818584 0.05719165 0.066242024 -0.229317 -0.02523919
0.07668416 0.059278872 0.057884254 0.04939946 -0.10049561 -0.013700957 -0.11963719 -0.29853806
0.2254603 0.026541958 0.15761738 -0.18486051 0.019006133 0.2594105 -0.16473919 -0.20111167
0.030897329 -0.04876741 -0.009633878 -0.09342971 0.2509941 -0.09996862 -0.009985434 -0.08140556
-0.2619261 0.13681114 0.0056744497 0.09540512 0.11726738 -0.19164172 -0.054760046 0.020130632
0.0028084815 -0.030390045 0.21282196 0.26954687 -0.08925502 0.1439141 -0.28846496 -0.26896372
-0.0986243 -0.14063354 -0.07036401 0.107611194 0.29114595 -0.19066046 -0.1175385 -0.041765805
-0.10052351 -0.17081843 0.20247619 0.20423031 0.018735005 -0.03543349 0.14948776 -0.15124223
0.05314994 -0.17253013 0.11616324 0.01829824 0.24259946 0.055251196 0.24920948 -0.23001283
-0.14086653 0.03507996 0.20908573 -0.012667589 -0.11001931 0.16977514 -0.055319656 0.1914181
0.06475847 0.20695469 -0.21880762 0.19269322 0.010898471 0.07630972 0.27070525 0.084836334
0.07638 0.26641393 -0.0907644 0.30870906 -0.09361065 -0.27217576 0.21795209 -0.21795854
0.17094104 0.15831566 0.21389845 0.09007064 0.19259283 -0.18386465 -0.13616797 0.25770348
-0.26359507 0.03835805 -0.00955687 0.01897807 0.057294775 0.034781836 -0.24789453 -0.035731196
0.1482203 -0.08614288 -0.10286179 0.14968258 -0.2374004 0.104957975 0.024864703 0.08711038
00000000: 3bc3 6dbb 0cde 873e fa93 fc3c 2b23 17bd
00000010: ac18 cbbc 93c4 5d3d 6813 a63c da42 b4be
00000020: b4e6 3abe b439 4dbd d675 f2bd 8dbf 943e
00000030: 0b4e 6dbe 60b8 81be 161c 2cba 92c2 9abe
00000040: abea 103e bc16 cd3c 3862 903d c1f8 1dbe
00000050: 487c 183d 2b02 f03d 4395 7ebe c119 1abd
00000060: 1184 133e 6405 7fbd 2fe4 3e3e b9f8 8abe
00000070: 8c3f 89be 31c9 023e 28db 40ba b234 81be
00000080: 77ec adbe 78f3 783e 0e4c d53d 042b 34be
00000090: cac9 ba3d 13c8 88be 9250 d7bd f702 633e
000000a0: 3eff 423e 5683 e93b d2d5 f4bd b43e 333e
000000b0: d29b 253e 5cb8 7bbe 8058 c33d 305d 443d
000000c0: 921e d5bd 8e9d 823e d515 283e 411e 423e
000000d0: 4d85 bdbe f7e4 8cbe e0e9 313e 0ec2 5abe
000000e0: 97fc 333e ab75 773e d072 abbc aafa 9cbd
000000f0: b4dd 94bd d7a8 2ebe f055 93bc 2b92 4abe
00000100: 0236 593d cbfe 18be 1f0f 6e3e 4db3 dd3d
00000110: 39bd 46bb 5787 b83c 305f 2c3c 55bc 1dbe
00000120: b9bb 26be 40f5 b4bc 7e83 1c3e 967a 243e
00000130: f212 6a3e cacc 6d3e c151 4abe 1e10 703e
00000140: d64c 0dbd 99c9 bcbd 9c40 8d3e 5ee1 85bd
00000150: 0680 14be e72d 81be ebe3 6c3e 50a1 fcbd
00000160: c259 0f3e 27de 86be 32e7 ca3d 7d98 d1bd
00000170: 9a17 60be 792b 7bbe bbc5 1d3e 9064 1ebd
00000180: 8106 713d bd33 203d 7208 e8bd 9cc9 15be
00000190: 0dd5 04be 2e7d 703e 6d20 153d b42b cabd
000001a0: 8cbb 68bd 16ba 1fbd 51e8 223e 7af4 c2bd
000001b0: effd 933d e05a 933d 75c0 13ba b3c8 713d
000001c0: c4f1 96be f865 31be cf2e 873e cea6 273e
000001d0: 8efb f13d edfb 88be 54e1 77be bf0c 4abe
000001e0: 871b f6bd be15 a1bd 376d 1abe e35c 313d
000001f0: 9d6a 60be b6b5 333e 588f 17bd 64ac 923d
00000200: 546a 8f3e 8ec8 12bd aacc abbe 2437 a1be
00000210: b02d 88be 2c4d 063d 1340 7abe e385 2f3e
00000220: 3634 1cbe c036 59bc ca56 bf3c cab3 403e
00000230: cb41 6a3d e6a9 873d 13d2 6abe 6bc2 cebc
00000240: 960c 9d3d 67ce 723d 0a18 6d3d 1757 4a3d
00000250: a4d0 cdbd fb79 60bc 5804 f5bd fbd9 98be
00000260: 11df 663e 856e d93c 7366 213e 134c 3dbe
00000270: c0b2 9b3c 74d1 843e 64b1 28be 38f0 4dbe
00000280: 651c fd3c 56c0 47bd 6ad7 1dbc 1358 bfbd
00000290: 4c82 803e 59bc ccbd f299 23bc f5b7 a6bd
000002a0: 2e1b 86be 3818 0c3e bcf0 b93b c263 c33d
000002b0: e129 f03d ba3d 44be 124c 60bd ffe8 a43c
000002c0: 800e 383b 8bf4 f8bc 00ee 593e 0c02 8a3e
000002d0: 56cb b6bd 385e 133e aeb1 93be 9db5 89be
000002e0: 89fb c9bd 3d02 10be 021b 90bd 4263 dc3d
000002f0: 1511 953e 7f3c 43be 06b8 f0bd 9f12 2bbd
00000300: 45df cdbd 07eb 2ebe eb55 4f3e c021 513e
00000310: 277a 993c b522 11bd 5213 193e 3edf 1abe
00000320: c0b3 593d bdab 30be fee6 ed3d 31e6 953c
00000330: fe6b 783e 144f 623d c530 7f3e 7c88 6bbe
00000340: 513f 10be 01b0 0f3d 921a 563e b88b 4fbc
00000350: ce51 e1bd 89d9 2d3e dd96 62bd 1b03 443e
00000360: 17a0 843d eeeb 533e 1b0f 60be 5f51 453e
00000370: 808f 323c 4548 9c3d e199 8a3e acbe ad3d
00000380: 1e6d 9c3d 6867 883e b0e2 b9bd 1d0f 9e3e
00000390: f1b6 bfbd 9f5a 8bbe d52e 5f3e 8630 5fbe
000003a0: 2b0b 2f3e 801d 223e 3208 5b3e f576 b83d
000003b0: 0e37 453e 0447 3cbe 9e6f 0bbe b6f1 833e
000003c0: eff5 86be 551d 1d3d 6b94 1cbc e677 9b3c
000003d0: edad 6a3d 6677 0e3d 10d8 7dbe e05a 12bd
000003e0: 10c7 173e ae6b b0bd 34a9 d2bd 6446 193e
000003f0: 1719 73be 35f4 d63d 10b1 cb3c ed66 b23d

sequential/dense/BiasAdd/ReadVariableOp:0 f4 [64]
-0.19045794 -0.16935073 -0.18885897 0.12771867 -0.015870968 -0.3783381 0.017601997 -0.08366621
0.0 0.0 -0.18866222 -0.08227386 0.2422097 0.22040242 0.04310065 0.024011444
0.12966135 0.24978855 -0.2836781 -0.033307668 0.0 -0.22291765 0.037543036 -0.02018005
-0.22383016 0.120582104 0.21291925 0.003926615 0.0 0.14351578 0.4595402 0.0
0.21516877 0.19339411 -0.18568887 -0.26982063 0.12842341 -0.03732095 0.15903768 -0.15308104
-0.27245954 0.34223738 -0.43347237 0.11779972 -0.19160731 0.0 0.03818109 -0.15991038
0.0 0.08046616 0.27698907 -0.20395635 0.076219745 -0.026482195 0.0 0.0
0.39792147 -0.26282448 0.0 -0.27460185 -0.06615565 -0.2786703 0.0 0.07518908
00000000: 6807 43be 476a 2dbe 3f64 41be afc8 023e
00000010: d503 82bc 88b5 c1be 1032 903c 3159 abbd
00000020: 0000 0000 0000 0000 ab30 41be 337f a8bd
00000030: d205 783e 2cb1 613e 4f8a 303d a6b3 c43c
00000040: f2c5 043e 92c8 7f3e 423e 91be 9f6d 08bd
00000050: 0000 0000 8644 64be bac6 193d a250 a5bc
00000060: bc33 65be c0f3 f63d 8107 5a3e d6aa 803b
00000070: 0000 0000 cdf5 123e da48 eb3e 0000 0000
00000080: 3455 5c3e 1b09 463e 3925 3ebe ee25 8abe
00000090: 6d81 033e dadd 18bd c6da 223e 47c1 1cbe
000000a0: d17f 8bbe bd39 af3e 17f0 ddbe fb40 f13d
000000b0: b534 44be 0000 0000 c663 1c3d 8cbf 23be
000000c0: 0000 0000 71cb a43d 83d1 8d3e efd9 50be
000000d0: 1919 9c3d 30f1 d8bc 0000 0000 0000 0000
000000e0: 5dbc cb3e ee90 86be 0000 0000 9d98 8cbe
000000f0: 9d7c 87bd e0ad 8ebe 0000 0000 bbfc 993d
